rewards_results/init-ckpts/initmodel-1.pt (torch, 5488 bytes, 6 tensors)

classifier.0.weight f4 [32, 2]
-0.08274193 0.57828313 -0.18583834 0.3723013 0.26099393 -0.6756676 -0.56657046 -0.50188565
0.37976527 0.5686903 0.5671555 -0.46049038 -0.23579846 -0.26172376 0.099774316 0.1864349
-0.20279048 -0.47208896 0.24765286 0.10159076 -0.00042020407 -0.06463076 -0.66118056 -0.5886483
-0.39294955 -0.10367543 -0.62526166 -0.23565811 -0.59104925 -0.3397927 0.1346531 0.6335607
-0.5747903 -0.42529467 -0.5423564 -0.012995559 -0.70457697 -0.021068873 -0.12570685 0.4299984
0.67264134 0.6360311 0.36029217 0.23358542 0.14888845 -0.4656349 -0.616343 -0.06645706
-0.23072322 -0.23171696 -0.38524967 0.15143675 0.06815061 0.19738339 -0.12105333 -0.06872398
-0.0757507 -0.3239566 -0.25550514 0.28902462 -0.30555218 -0.45133516 -0.39072892 0.1895375
00000000: 9a74 a9bd 5d0a 143f 684c 3ebe 479e be3e
00000010: ffa0 853e 8df8 2cbf c30a 11bf 947b 00bf
00000020: 9870 c23e b095 113f 1a31 113f 65c5 ebbe
00000030: 2775 71be a800 86be 7a56 cc3d cae8 3e3e
00000040: 4fa8 4fbe a5b5 f1be b698 7d3e d10e d03d
00000050: d64e dcb9 225d 84bd 2143 29bf a8b1 16bf
00000060: af30 c9be c953 d4bd 2611 20bf 5c50 71be
00000070: 014f 17bf 4ff9 adbe 81e2 093e 0931 223f
00000080: 7525 13bf 39c0 d9be ded7 0abf 53eb 54bc
00000090: 285f 34bf a198 acbc 4cb9 00be c028 dc3e
000000a0: 3932 2c3f efd2 223f 3778 b83e 0431 6f3e
000000b0: 3776 183e b367 eebe a8c8 1dbf a41a 88bd
000000c0: b542 6cbe 3647 6dbe 723f c5be 3c12 1b3e
000000d0: 8c92 8b3d df1e 4a3e cfea f7bd 28bf 8cbd
000000e0: 2f23 9bbd a4dd a5be 92d1 82be 09fb 933e
000000f0: 5671 9cbe 6715 e7be 9f0d c8be 1e16 423e

classifier.0.bias f4 [32]
0.68744105 -0.66441536 -0.27650213 -0.65750796 -0.046337087 0.07645733 0.121233135 0.22781299
-0.39324442 -0.21186799 -0.6765175 0.22659805 -0.5028608 0.6804119 -0.4931757 0.26894367
0.22336523 -0.44717166 -0.092396595 -0.08177407 0.6804649 -0.32175148 0.005845431 0.024514461
-0.58553874 0.5255325 -0.4862347 0.32156882 -0.21613957 0.5836063 0.7039924 0.6103846
00000000: 23fc 2f3f 2017 2abf b091 8dbe 7152 28bf
00000010: f5cb 3dbd a995 9c3d 1449 f83d cf47 693e
00000020: 5557 c9be ecf3 58be 4030 2dbf 5209 683e
00000030: 7cbb 00bf 792f 2e3f 8681 fcbe fcb2 893e
00000040: dbb9 643e aff3 e4be 6d3a bdbd 2a79 a7bd
00000050: f332 2e3f 9cbc a4be 078b bf3b 8dd2 c83c
00000060: dee5 15bf 4c89 063f c1f3 f8be aba4 a43e
00000070: b153 5dbe 3967 153f d938 343f 2a42 1c3f

classifier.2.weight f4 [16, 32]
-0.15203117 -0.14357905 -0.026492434 0.15757126 -0.056846026 -0.0037716792 -0.0089441305 -0.070967495
0.1527124 -0.023119926 0.058407776 -0.08189744 0.063292466 -0.08499588 -0.001874207 0.013559421
-0.049202945 0.17297046 0.11731335 0.08478016 -0.05711907 -0.17204882 -0.030071039 -0.049612824
-0.022613049 -0.09746783 -0.16201663 -0.05183076 0.023000231 0.1629825 -0.13009158 -0.0155839445
-0.13094722 0.12328541 0.114729434 -0.006863003 0.11650805 -0.13046893 0.011448327 -0.09988209
0.07242649 0.12476428 0.024166834 0.067495525 0.045175605 0.09003525 0.0022626324 0.15385278
-0.11662764 -0.105557226 -0.1198681 0.0981963 -0.051802184 -0.0030014878 0.0021624493 0.137878
-0.17195113 0.12802552 0.039446563 -0.020074818 -0.16962665 -0.08132401 0.16986416 -0.116647385
-0.060933277 -0.009464981 -0.04990838 -0.1606792 0.084233254 0.056719247 -0.13833643 0.088785306
0.04399307 -0.026530534 0.10867786 -0.096796475 0.08173728 -0.03302083 -0.1056844 0.031145025
0.07666256 -0.0013692668 -0.1321431 0.13609873 -0.09418103 0.061451368 0.029763661 0.11568108
0.09984047 0.16195546 -0.08846763 0.09178671 0.080343924 0.11520676 -0.1368868 -0.018705571
0.14508595 -0.013446931 0.043130662 0.02613271 -0.08508572 0.15811759 0.111260474 -0.04248257
0.12333123 0.037289422 -0.16704544 0.043739874 -0.051205385 -0.12216881 -0.08046645 0.15345877
-0.012683104 -0.13023394 -0.110925674 -0.06312523 0.043257397 0.059533898 -0.029640213 -0.024350151
-0.06951711 -0.036154494 -0.117877185 -0.1645455 0.12833887 0.13164371 0.16042279 -0.15314789
0.13558958 -0.05159737 -0.12585735 -0.16996157 -0.124046855 -0.0422099 0.047325496 -0.056140065
0.09136579 -0.034824487 -0.07890299 -0.04283435 -0.084570326 0.068316855 0.10676338 0.10033841
0.17591475 -0.14056253 0.1493999 -0.044949885 0.035831206 0.0765348 0.12060723 -0.012335476
0.07146323 0.044168044 0.10037953 0.057075366 0.04546762 -0.13206902 0.12494802 0.0883996
-0.10062579 -0.08507206 -0.111131795 -0.018087888 -0.014779488 -0.0015950685 -0.06427723 0.0023039784
-0.11209125 -0.028921673 0.040207673 -0.13596493 0.12596941 0.04952048 -0.012562564 -0.022924935
-0.10779638 -0.1365877 0.16804838 -0.1594444 -0.0660226 0.06741334 0.04632497 -0.103076965
0.03451182 0.1323355 0.07356724 -0.09415781 0.13110386 -0.08204539 -0.07899689 0.12579256
-0.010164745 -0.16434702 -0.086078316 0.13570423 0.06794921 -0.06889956 0.06904368 0.06299978
-0.10852148 -0.08765558 -0.09578415 0.11328795 -0.12177036 -0.17286195 -0.10282029 0.10095278
-0.1494616 0.06920877 0.07580087 -0.16241448 -0.08672405 -0.05288757 -0.16263266 -0.095798835
0.14349668 0.021331616 -0.06608523 -0.1083586 -0.1710537 0.10268837 0.08537932 -0.021955347
0.040873043 -0.018766517 0.17133059 -0.11937852 0.12914248 0.14861305 -0.062983066 -0.039936583
0.05675016 0.0071344287 -0.11272415 -0.107968405 0.08611456 -0.04885125 -0.044680674 -0.096385986
0.03457801 -0.15195218 0.07762059 0.13156709 0.0013794875 0.102522984 -0.08057002 -0.15310346
-0.08734536 0.060205486 -0.035692394 0.008969987 -0.0020921484 0.12572439 0.011920983 -0.12329049
00000000: 0fae 1bbe 6306 13be a906 d9bc 5c5a 213e
00000010: 61d7 68bd 472e 77bb 678a 12bc 6857 91bd
00000020: a460 1c3e 0066 bdbc fe3c 6f3d d8b9 a7bd
00000030: 7b9f 813d 5212 aebd f4a7 f5ba 5528 5e3c
00000040: 0789 49bd 2b1f 313e fb41 f03d 38a1 ad3d
00000050: b0f5 69bd 912d 30be 8a57 f6bc d136 4bbd
00000060: 003f b9bc 379d c7bd b0e7 25be 7e4c 54bd
00000070: fb6a bc3c e2e4 263e ba36 05be cd53 7fbc
00000080: 0717 06be 107d fc3d 44f7 ea3d 0be3 e0bb
00000090: c69b ee3d a699 05be c491 3b3c fb8e ccbd
000000a0: 5754 943d 6a84 ff3d 86f9 c53c 183b 8a3d
000000b0: 0e0a 393d 6764 b83d ac48 143b 958b 1d3e
000000c0: 79da eebd 632e d8bd 687d f5bd 241b c93d
000000d0: 872e 54bd 9cb4 44bb e1b7 0d3b e42f 0d3e
000000e0: f513 30be 1f19 033e b892 213d f273 a4bc
000000f0: 9cb2 2dbe 348d a6bd dff0 2d3e d3e4 eebd
00000100: 2c95 79bd 0213 1bbc bb6c 4cbd 1789 24be
00000110: 7c82 ac3d 7152 683d 11a8 0dbe 12d5 b53d
00000120: 1432 343d 9056 d9bc 7f92 de3d 3b3d c6bd
00000130: e065 a73d da40 07bd 1071 d8bd da23 ff3c
00000140: 4301 9d3d f878 b3ba 8550 07be 775d 0b3e
00000150: fce1 c0bd 6eb4 7b3d ecd2 f33c 34ea ec3d
00000160: 2979 cc3d a7d7 253e 842e b5bd acfa bb3d
00000170: 5b8b a43d 86f1 eb3d 0e2c 0cbe 6d3c 99bc
00000180: 6991 143e 8450 5cbc c7a9 303d 4414 d63c
00000190: 6c41 aebd 94e9 213e 88dc e33d 3402 2ebd
000001a0: 1595 fc3d cbbc 183d f60d 2bbe 9528 333d
000001b0: bdbc 51bd a433 fabd 98cb a4bd 4c24 1d3e
000001c0: cbcc 4fbc 0c5c 05be 002d e3bd cd47 81bd
000001d0: ab2e 313d d1d9 733d 08d0 f2bc f879 c7bc
000001e0: fd5e 8ebd bc16 14bd 9869 f1bd 9e7e 28be
000001f0: 446b 033e 9ccd 063e df45 243e cdd2 1cbe
00000200: ffd7 0a3e c457 53bd c0e0 00be 680a 2ebe
00000210: 470c febd 4ae4 2cbd 61d8 413d 20f3 65bd
00000220: fd1d bb3d 1fa4 0ebd e497 a1bd 1273 2fbd
00000230: 3533 adbd b5e9 8b3d c2a6 da3d 397e cd3d
00000240: ff22 343e a0ef 0fbe 4afc 183e 5f1d 38bd
00000250: bec3 123d 47be 9c3d ec00 f73d bd1a 4abc
00000260: 505b 923d 8de9 343d c893 cd3d dcc7 693d
00000270: 413c 3a3d 1a3d 07be bfe4 ff3d d90a b53d
00000280: e514 cebd 433a aebd 1199 e3bd 0d2d 94bc
00000290: aa25 72bc 9e11 d1ba c8a3 83bd 58fe 163b
000002a0: 1990 e5bd 25ed ecbc cdb0 243d 643a 0bbe
000002b0: 20fe 003e fdd5 4a3d 36d3 4dbc 13cd bbbc
000002c0: 59c4 dcbd a5dd 0bbe e014 2c3e 6545 23be
000002d0: db36 87bd 0110 8a3d 40bf 3d3d 041a d3bd
000002e0: 445c 0d3d f582 073e 6caa 963d cfd5 c0bd
000002f0: 1740 063e 6a07 a8bd 1fc9 a1bd c4cf 003e
00000300: 088a 26bc 964a 28be d449 b0bd 0df6 0a3e
00000310: f528 8b3d 361b 8dbd c666 8d3d 0706 813d
00000320: 8240 debd c584 b3bd 7b2a c4bd 8303 e83d
00000330: bd62 f9bd b902 31be 7293 d2bd 55c0 ce3d
00000340: 760c 19be 54bd 8d3d 7d3d 9b3d fb4f 26be
00000350: 619c b1bd a3a0 58bd 2d89 26be 2e32 c4bd
00000360: cbf0 123e a4bf ae3c b157 87bd 1deb ddbd
00000370: b328 2fbe 484e d23d 5adb ae3d b3db b3bc
00000380: 7e6a 273d 3dbc 99bc 4971 2f3e ba7c f4bd
00000390: ed3d 043e 052e 183e 44fd 80bd 8b94 23bd
000003a0: db72 683d edc7 e93b ebdb e6bd 8a1e ddbd
000003b0: d55c b03d 4018 48bd 1503 37bd 0466 c5bd
000003c0: aca1 0d3d 5a99 1bbe 8bf7 9e3d 86b9 063e
000003d0: ebcf b43a 92f7 d13d e501 a5bd 27c7 1cbe
000003e0: 20e2 b2bd 079a 763d 3032 12bd daf6 123c
000003f0: 6d1c 09bb e5bd 003e 3a50 433c b97f fcbd

classifier.2.bias f4 [16]
-0.15820058 0.10586795 -0.10092594 0.11941148 0.0016190711 -0.14856863 -0.11548508 0.13886108
-0.034633286 -0.13841353 -0.05138645 -0.10335141 -0.17606199 -0.076310426 -0.15036093 -0.030044865
00000000: 55ff 21be 4cd1 d83d 42b2 cebd 028e f43d
00000010: 0337 d43a 6022 18be 7183 ecbd 9931 0e3e
00000020: a2db 0dbd 47bc 0dbe 997a 52bd e7a9 d3bd
00000030: 9849 34be a448 9cbd 37f8 19be a620 f6bc

classifier.4.weight f4 [2, 16]
-0.17414644 0.06651834 0.18371579 0.03566143 -0.11339438 0.0145557225 0.21509892 -0.1877732
0.19414419 -0.103290886 -0.045327514 -0.01598519 -0.2227214 0.0651159 0.23629919 -0.06950563
-0.23871842 -0.11676633 -0.01903674 -0.13202447 0.19793218 0.0544374 0.10932937 -0.23201847
-0.1266427 0.11784819 -0.08721048 -0.17770457 0.026631832 -0.06712127 -0.20845428 -0.14730766
00000000: 7253 32be c43a 883d fe1f 3c3e b811 123d
00000010: 503b e8bd 207b 6e3c e442 5c3e 9e47 40be
00000020: bccd 463e 2c8a d3bd 58a9 39bd 60f3 82bc
00000030: 1411 64be 7c5b 853d 6af8 713e f858 8ebd
00000040: 9a72 74be 3023 efbd f0f2 9bbc 6c31 07be
00000050: bcae 4a3e c0f9 5e3d 14e8 df3d 4096 6dbe
00000060: a0ae 01be 645a f13d 689b b2bd 30f8 35be
00000070: 002b da3c e076 89bd 0a75 55be d2d7 16be

classifier.4.bias f4 [2]
-0.12820181 0.016178042
00000000: 5647 03be d087 843c
