rewards_results/init-ckpts/initmodel-2.pt (torch, 5488 bytes, 6 tensors)

classifier.0.weight f4 [32, 2]
0	0xbf1f7f39	-0.623035
1	0xbc30abf7	-0.010783187
2	0x3da7f3ac	0.082007736
3	0x3ecf34dd	0.4047002
4	0x3f054fca	0.52074873
5	0xbeb6ac2a	-0.35678226
6	0xbbcd3460	-0.006262347
7	0x3ee9d940	0.4567356
8	0x3ec21c97	0.37912437
9	0xbf2ac4bd	-0.6670645
10	0x3e6ca532	0.23109892
11	0x3e103e33	0.14086227
12	0xbf1a4a5e	-0.60269725
13	0xbe9ae303	-0.3025132
14	0x3eb250cd	0.3482727
15	0xbe9ff992	-0.31245095
16	0x3ee40057	0.4453151
17	0x3f0678c8	0.5252805
18	0xbf0c8dbc	-0.5490377
19	0x3e5a1c0c	0.21299762
20	0xbeb9a38b	-0.36257586
21	0x3e8833f1	0.26602128
22	0x3d96ca8d	0.07362852
23	0x3eee4335	0.4653565
24	0x3f066e9c	0.52512527
25	0xbed93fd3	-0.42431507
26	0x3e8cbc5c	0.27487457
27	0x3f2f4be8	0.684752
28	0x3e828205	0.25489822
29	0xbe4f92c9	-0.20270838
30	0x3eac0896	0.336003
31	0x3ce27ccf	0.027647404
32	0x3f045974	0.51698995
33	0xbf163b52	-0.58684266
34	0xbe5ffc8c	-0.21873683
35	0x3f08a835	0.53381664
36	0x3d8007b9	0.06251473
37	0x3e59af5a	0.21258298
38	0xbdb4a9ff	-0.08821487
39	0x3e698526	0.22804698
40	0x3ea1c75b	0.3159741
41	0xbf30b402	-0.6902467
42	0xbe996f9e	-0.2996797
43	0xbe9e582b	-0.30926642
44	0x3e834c36	0.25644082
45	0x3e4fda7e	0.20298192
46	0xbe6d6d2d	-0.23186179
47	0x3f16e221	0.58938795
48	0xbef22363	-0.47292623
49	0xbf1616cd	-0.5862854
50	0xbe59c518	-0.21266592
51	0x3e7c98ea	0.24667707
52	0x3ee90611	0.4551244
53	0xbf28bb80	-0.659111
54	0x3e5c0ade	0.2148852
55	0xbe97f9be	-0.29682726
56	0xbe71f3d6	-0.23628172
57	0xbd589345	-0.052874822
58	0xbf1757a7	-0.5911812
59	0x3eec6542	0.46171004
60	0x3ec4fcf4	0.38474238
61	0xbcc8fe37	-0.024535282
62	0xbf30c54e	-0.69051063
63	0x3d46e257	0.0485557

classifier.0.bias f4 [32]
0	0xbee453ab	-0.44595084
1	0x3ecc6170	0.3991809
2	0xbeddae0f	-0.4329686
3	0x3d2abae3	0.041682135
4	0xbecc44e6	-0.39896315
5	0xbe8e8ba9	-0.27840927
6	0x3cee4636	0.029086214
7	0xbe94725c	-0.289935
8	0x3f054607	0.5205998
9	0xbedcf770	-0.4315753
10	0xbf248b61	-0.64275175
11	0x3f132ce1	0.57490355
12	0xbed024d9	-0.40653113
13	0xbcfb07fc	-0.030643456
14	0x3f2f11a6	0.68386304
15	0x3d615e85	0.05502178
16	0xbe59c15c	-0.21265167
17	0xbea7b62d	-0.32756177
18	0x3eda1549	0.42594364
19	0x3f2987a1	0.6622258
20	0x3e2e2112	0.17004803
21	0xbe70d2c8	-0.23517907
22	0xbe983d27	-0.29734156
23	0xbd8a8ff8	-0.06765741
24	0x3f2fa3b1	0.6860915
25	0x3e0c88f9	0.13724126
26	0xbf183b2b	-0.59465283
27	0x3e7a03d6	0.24415526
28	0xbe06d6da	-0.13167897
29	0xbf0bb785	-0.54576904
30	0x3f1aa4c1	0.60407645
31	0xbe2e7384	-0.17036253

classifier.2.weight f4 [16, 32]
0	0x3e1e7ad8	0.15476549
1	0x3e15c65f	0.14626454
2	0x3dbe2bc5	0.09285692
3	0xbdf46874	-0.11933985
4	0x3e2cce02	0.1687546
5	0xbdb47e77	-0.08813184
6	0x3c66c11d	0.014084128
7	0xbe328a58	-0.17435586
8	0x3d1a6279	0.037691567
9	0xbdc9e94e	-0.098589525
10	0x3cc7adc4	0.02437485
11	0xbcce5409	-0.025186555
12	0x3d5b57bf	0.053550478
13	0xbca0237d	-0.019548172
14	0xbe2d57de	-0.1692805
15	0x3de5a3be	0.11212872
16	0xbe0e5859	-0.1390089
17	0x3e34a0d1	0.17639472
18	0xbde1c789	-0.110243864
19	0x3be3d93d	0.006953387
20	0xbdb12297	-0.086491756
21	0x3d965edc	0.07342312
22	0x3dddc962	0.10829426
23	0x3e32a018	0.17443883
24	0x3dc3b64b	0.09556254
25	0x3cec3b5a	0.028836895
26	0xbddf9dc9	-0.10918767
27	0x3c95fa2d	0.01830777
28	0xbe01b6a9	-0.12667336
29	0x3c3fa7d7	0.011697731
30	0x3e134048	0.1437999
31	0x3dde34af	0.10849892
32	0xbc80dac0	-0.015729308
33	0x3e02a86f	0.12759565
34	0xbe1b2cb3	-0.1515377
35	0xbdd319a7	-0.10307627
36	0xbe329356	-0.17439017
37	0x3df832ba	0.1211905
38	0x3da7b690	0.08189118
39	0x3e2339fa	0.15940085
40	0xbbf24483	-0.007393421
41	0x3e0bafd8	0.13641298
42	0x3c96a9b7	0.018391473
43	0xbe345db8	-0.17613876
44	0xbdfc2a27	-0.123127274
45	0x3e33d3f7	0.17561327
46	0xbe0de7a5	-0.13857897
47	0xbdaaccc9	-0.08339841
48	0x3c48c54b	0.01225407
49	0x3e2818bd	0.16415687
50	0x3bddda49	0.0067704064
51	0xbe344f22	-0.17608312
52	0xbdaf744e	-0.08567105
53	0xbd801a19	-0.06254978
54	0x3bb5851d	0.00553955
55	0xbe238c1e	-0.15971419
56	0x3d8e4205	0.06946186
57	0x3e0bb959	0.13644923
58	0xbe2838ff	-0.16427992
59	0x3c77155a	0.015080774
60	0x3d03733c	0.032092318
61	0xbd395e61	-0.045256022
62	0x3dcdc47e	0.100472435
63	0xbe009cbc	-0.1255979
64	0xbe0b9325	-0.1363035
65	0x3c3a15c8	0.011357732
66	0x3df7ba40	0.12096071
67	0x3dc4bcc0	0.09606314
68	0x3dec9467	0.11551743
69	0xbc052a3c	-0.008127745
70	0xbe2e4f1f	-0.1702237
71	0xbca04d4b	-0.019568106
72	0x3df44719	0.11927623
73	0x3e1a51aa	0.15070215
74	0x3dac2115	0.084047474
75	0xbddf030f	-0.10889255
76	0xbd50a9c3	-0.050943147
77	0xbe2db0bf	-0.16961955
78	0xbd8b247b	-0.067940675
79	0xbdd0e3de	-0.10199712
80	0xbbf03e07	-0.007331613
81	0xbc30ccc1	-0.010791005
82	0xbe04ab51	-0.12955977
83	0x3d48a212	0.048982687
84	0xbdf9249a	-0.12165184
85	0x3d1f2d0f	0.03886133
86	0x3cfa730d	0.030572439
87	0x3d57068f	0.05249649
88	0xbdc226b1	-0.09480036
89	0x3d813685	0.06309227
90	0x3e03a065	0.12854154
91	0x3c77e401	0.015130044
92	0xbdfa26e7	-0.12214451
93	0xbe14ffe6	-0.14550743
94	0xbd9d4cc8	-0.076806605
95	0x3e2df263	0.16986994
96	0xbe113b5a	-0.14182797
97	0xbe223b11	-0.15842845
98	0x3da5ca2c	0.08095202
99	0x3de73fee	0.112914905
100	0x3e30b48e	0.17256376
101	0xbde092a4	-0.109654695
102	0xbe255c46	-0.16148481
103	0x3d4e3bee	0.050350122
104	0xbe294c8f	-0.16533111
105	0x3dc4aad2	0.09602894
106	0xbe0c7f49	-0.1372043
107	0x3e2eb570	0.170614
108	0xbcd31e34	-0.025771238
109	0xbdb14d1b	-0.08657285
110	0x3d433720	0.047659993
111	0x3d0595a1	0.0326134
112	0x3e2b52fb	0.16730873
113	0x3dd89b45	0.1057649
114	0x3d23daa2	0.040003426
115	0xbd81ea97	-0.063435726
116	0x3e0c2ccd	0.13688965
117	0xbd20523f	-0.039140936
118	0x3db36400	0.08759308
119	0xbd1fb8b7	-0.038994517
120	0x3d673fd7	0.056457367
121	0xbce2b8d4	-0.027676024
122	0x3e1220ee	0.14270374
123	0xbe1bc644	-0.15212351
124	0x3d3f5889	0.046715293
125	0x3de8f6f4	0.113752276
126	0x3e0362ed	0.12830706
127	0xbc800951	-0.015629442
128	0xbe0eefdc	-0.13958687
129	0x3e155559	0.14583339
130	0x3e16ce50	0.1472714
131	0xbe1b5211	-0.15168025
132	0x3db6f4eb	0.08933433
133	0xbdc7743c	-0.09738967
134	0x3d0f8753	0.035041165
135	0x3e0f471c	0.1399197
136	0xbe2431dd	-0.16034646
137	0xbdbf3b47	-0.09337478
138	0x3e2d0cff	0.16899489
139	0x3d0eb292	0.034838267
140	0x3e135130	0.1438644
141	0x3d72c6bb	0.059271555
142	0x3da866b8	0.08222717
143	0xbd20aa9c	-0.039225206
144	0xbdb0b459	-0.086281486
145	0xbdde1245	-0.108433284
146	0xbd5af827	-0.053459313
147	0xbe1bdb8d	-0.1522047
148	0xbdd8e463	-0.10590436
149	0xbd1a3e42	-0.03765703
150	0x3e24d797	0.16097866
151	0xbd855f80	-0.06512356
152	0x3dffb7e7	0.124862485
153	0x3cee7958	0.029110596
154	0x3e29719a	0.16547242
155	0x3da5e363	0.08100011
156	0xbd6ca7f0	-0.057777345
157	0xbe2bd281	-0.1677952
158	0x3e1f2bef	0.15544103
159	0x3e1fd753	0.15609483
160	0x3e229723	0.15877967
161	0xbe17f6a2	-0.14840177
162	0x3e1743e2	0.14771989
163	0x3de3265d	0.110913016
164	0x3bda9de9	0.0066716564
165	0xbd85a8d7	-0.06526344
166	0xbd1ea453	-0.03873093
167	0x3d293825	0.04131331
168	0x3de3bfbd	0.111205555
169	0x3d383a30	0.044977367
170	0x3df4dab5	0.119557776
171	0x3dca87cf	0.09889185
172	0xbc15fea3	-0.009154948
173	0x3d265121	0.040604714
174	0x3da1a76f	0.078932635
175	0x3db8541e	0.09000419
176	0x3deb4cc8	0.11489254
177	0x3df72431	0.1206745
178	0xbd09ce0b	-0.033643764
179	0x3cadca3b	0.021214595
180	0x3dd8e105	0.10589794
181	0x3e0cb494	0.1374076
182	0xbe0a94ae	-0.1353328
183	0xbc5677a9	-0.013090053
184	0x3d2028a8	0.039101273
185	0x3dd0ab38	0.101889074
186	0xbd98ec64	-0.07466963
187	0x3e076649	0.13222612
188	0xbdc5a662	-0.09650876
189	0x3e09766f	0.13424085
190	0x3d7eff6f	0.06225532
191	0x3e193ec2	0.14965346
192	0xbbe2f3c8	-0.0069260336
193	0xbd33ede8	-0.043928057
194	0xbceda564	-0.029009528
195	0xbe1732f1	-0.14765526
196	0x3df0b8ee	0.117540225
197	0x3d4a07d8	0.049323887
198	0xbe34b01d	-0.17645307
199	0x3bc149eb	0.0058987043
200	0x3e0463d2	0.12928703
201	0xbcf636ec	-0.030055486
202	0x3de0e3d1	0.109809525
203	0xbcbb81f1	-0.02288911
204	0x3c8e6b17	0.017385049
205	0x3e2f21ef	0.17102788
206	0x3e085715	0.13314469
207	0xbe216b52	-0.15763596
208	0xbe016d28	-0.12639296
209	0xbdfbc6e7	-0.12293797
210	0x3cf96f5d	0.03044861
211	0xbd6314d1	-0.055439774
212	0xbd6795c7	-0.056539323
213	0x3dc05fe3	0.09393289
214	0xbdb5bc8b	-0.08873852
215	0x3b831c6a	0.00400119
216	0x3e33101e	0.17486617
217	0xbe185ae6	-0.14878425
218	0xbd84869b	-0.064709865
219	0xbd12dbf6	-0.035854302
220	0xbdc66b0f	-0.096883886
221	0xbc8a961c	-0.01691728
222	0xbd6dbaa0	-0.058039308
223	0xbe262487	-0.16224872
224	0x3dd2039d	0.102545954
225	0xbe0880a3	-0.13330321
226	0x3cdc28e0	0.02687496
227	0x3e10072a	0.14065233
228	0xbe248434	-0.16066056
229	0xbdd9e668	-0.1063965
230	0x3d8844a6	0.06653719
231	0xbb86200b	-0.0040931753
232	0xbde1c518	-0.11023921
233	0xbcaac458	-0.020845577
234	0xbd59d98e	-0.053185992
235	0xbe239f86	-0.15978822
236	0x3e0ccbb5	0.13749583
237	0x3e34e02f	0.17663644
238	0x3c29e667	0.010369874
239	0x3e344fc8	0.17608559
240	0xbe04e89e	-0.12979361
241	0x3d80be1a	0.06286259
242	0x3e0a62f7	0.13514315
243	0xbd27df8a	-0.040984668
244	0xbe0ccfdf	-0.13751172
245	0x3cfed29f	0.031106291
246	0xbe11c917	-0.14236866
247	0xbe1d550b	-0.15364473
248	0x3de00029	0.109375305
249	0x3dab25dc	0.083568305
250	0xbe2e44de	-0.17018458
251	0xbd5e3d6f	-0.054257806
252	0x3d43afaa	0.04777495
253	0x3df7e9c5	0.12105135
254	0xbe07b0c2	-0.13251022
255	0x3c73caec	0.014879923

classifier.2.bias f4 [16]
0	0xbd8dd21f	-0.06924843
1	0xbe07f5fc	-0.1327743
2	0x3dd99648	0.10624367
3	0xbdfb3806	-0.12266545
4	0x3dbba528	0.091623604
5	0x3d749522	0.059712537
6	0xbdea3aad	-0.11436973
7	0xbde1cd32	-0.11025466
8	0xbdee23f0	-0.11627948
9	0x3de386e2	0.11109711
10	0xbe31db77	-0.17368875
11	0xbe11e7c8	-0.14248574
12	0x3dc48ce9	0.09597189
13	0x3e0b6192	0.13611439
14	0x3d656417	0.056003656
15	0xbda929fe	-0.082599625

classifier.4.weight f4 [2, 16]
0	0xbc0c6ea0	-0.008571297
1	0x3dbfabf8	0.09358972
2	0xbb28a880	-0.00257352
3	0x3e3d49e2	0.18485215
4	0x3e1d0ef0	0.1533773
5	0xbd2bb810	-0.041923583
6	0xbd892dd4	-0.06698194
7	0x3b820100	0.0039674044
8	0xbd4a8a28	-0.049448162
9	0x3d916b18	0.07100505
10	0x3d13ac38	0.036052912
11	0xbe3419f0	-0.1758802
12	0xbdb1ce44	-0.0868192
13	0xbe1903d4	-0.14942867
14	0x3ce9cdf0	0.028540581
15	0x3db44920	0.0880301
16	0x3e5a80fa	0.21338263
17	0x3e69281c	0.22769207
18	0xbdcfe900	-0.10151863
19	0x3e50b430	0.20381236
20	0xbe383f82	-0.17992976
21	0xbd442ac0	-0.047892332
22	0xbe7f1326	-0.24909648
23	0xbd9843a8	-0.074347794
24	0x3c8c6640	0.0171386
25	0x3c4fee00	0.012691021
26	0xbd3ee3c0	-0.046603918
27	0xbe36e480	-0.17860603
28	0x3e1f3582	0.15547755
29	0xbe2dec7a	-0.1698474
30	0x3e1fb3c0	0.15595913
31	0x3e327bba	0.1743001

classifier.4.bias f4 [2]
0	0xbe220226	-0.15821132
1	0xbdcc8224	-0.0998576
