rewards_results/init-ckpts/initmodel-4.pt (torch, 5488 bytes, 6 tensors)

classifier.0.weight f4 [32, 2]
00000000: aca2 9d3d 0850 713d 35a2 0cbf 87d6 2bbc
00000010: d155 15bf 7e9e d4be 0b6f 303e 18eb ac3d
00000020: 2726 d03c d75d 323f 25ab 13bf fdd7 cebe
00000030: dfec 0e3f 4097 cb3c fc63 23bf f382 06bd
00000040: 53c1 793e 757c 263f 05dc a43d c954 2b3f
00000050: 978a 253e 70a3 2f3e 1fa3 b7be 3c0e 013f
00000060: bcc4 b8be 2837 883e 54d7 2e3f 30a0 623e
00000070: 5bb4 8dbe 76af 1fbf 78f5 65be c457 79be
00000080: 45e6 bebd d9d4 053f ca84 2c3f 8339 2dbf
00000090: 3fa6 18bf 7309 e53e a15c 013f abe3 91be
000000a0: fdb9 153f 911c 943e 0f31 fabe 88f2 47be
000000b0: 1f01 babe 363d 063e 6579 febe c780 28bf
000000c0: c694 dcbe 9619 e6be 6bbc 00bf 2bdb d33e
000000d0: d273 44be 1d95 133f a242 ff3e fd8e fd3e
000000e0: 118b 37bd c840 c13e 5904 343f 4865 f6be
000000f0: 71e3 fd3d c341 ac3e 55bf 25be ef13 d4be
0.07697043 0.058914214 -0.5493501 -0.010488159 -0.5833407 -0.4152717 0.1722986 0.08443278
0.025408817 0.6967444 -0.5768302 -0.4039916 0.55830187 0.024852395 -0.6382444 -0.032839727
0.24390154 0.65033656 0.08049778 0.66926247 0.16166149 0.1715219 -0.3586664 0.50412345
-0.36087596 0.2660458 0.68297315 0.22131419 -0.27676663 -0.6237711 -0.2245692 -0.24349886
-0.09321264 0.52277905 0.6739012 -0.6766588 -0.5962867 0.44733772 0.50531965 -0.2849401
0.5848692 0.28928044 -0.48865554 -0.19526112 -0.3632898 0.13109288 -0.49701992 -0.658215
-0.43082255 -0.44941396 -0.50287503 0.4137815 -0.19184807 0.57649404 0.49855524 0.49523154
-0.04481036 0.37744737 0.70319134 -0.48124146 0.12396897 0.33643922 -0.16186269 -0.41421458

classifier.0.bias f4 [32]
00000000: 8f63 b53e e008 133f 5b02 2f3f c9aa 943d
00000010: b187 a13d 59fe dfbe 9196 983d 2947 2abf
00000020: 07ed fe3e d6c7 b93e a564 a83e adca 26bf
00000030: a295 d83e f646 fbbd 159f d83e 91d6 d8be
00000040: dd73 123e aa22 99bd 473c cf3c 1d56 df3e
00000050: 470f adbe 7f5e 813d 659b cdbd dff0 eb3e
00000060: 54f4 33bf 32cc 7dbe cefd 2d3e 294c 2abf
00000070: 7701 383e af9f f2be a35f 0fbe 4d4f 9f3e
0.3542752 0.5743542 0.6836297 0.07259137 0.07887209 -0.4374874 0.07450593 -0.6651483
0.49790213 0.36285275 0.32889286 -0.6515301 0.4230166 -0.12269394 0.4230887 -0.423512
0.14302011 -0.07477315 0.025297297 0.43620387 -0.33800718 0.06316852 -0.10039405 0.46082208
-0.7029469 -0.24784926 0.1699135 -0.6652246 0.17969309 -0.47387454 -0.14001326 0.3111519

classifier.2.weight f4 [16, 32]
00000000: 5b23 2a3e 64a0 22bd 2565 debc 3320 0e3d
00000010: 18ba aabb 2bb0 853d 006c b73c e491 bebd
00000020: 5a9b 0d3d ff79 2d3e 7d0a 073e e0a8 44bd
00000030: 81c5 0d3e 6d6a 81bd ccef 39bd b308 cbbd
00000040: 9de8 09be 59d8 293c 80b8 aa3c bd2a ae3d
00000050: 2ece 07be 86ed 063e 7dce 083d 96f0 b83d
00000060: 8675 10be 343c 5dbd fccc 8fbd dced b43d
00000070: e307 87bd 5fc8 cf3d c6d8 8d3d b7dc 2fbd
00000080: 7b5f 103e 6dde 2abe 78ea b8bd 1d81 f8bc
00000090: dd12 883c 0d44 99bd 93b8 5b3d 7c2a fabb
000000a0: 7c6d c33c 6b4c 55bd 6e56 3cbc 526f cf3d
000000b0: 8f87 c53d c113 b1bd 1388 bd3b 8014 bcbd
000000c0: 3090 99bd 68bd 653d 48e2 16bd 2d04 063e
000000d0: 979d eb3d b443 eabd 4586 19be 0a5b 5b3d
000000e0: 69ca f03d 0403 b13d 5649 1a3e e79c b93d
000000f0: 91de 733d b07c f13d 593b 003e f386 80bd
00000100: 6159 ba3d d8ba b9bd b4e9 acbd b65c 123e
00000110: 96bb 303d ef1b e7bd 97c4 07be 0fe1 8b3d
00000120: a9ca 2a3e b62b 02bd 89ee fbbd 63a7 ce3c
00000130: f021 2fbe 8dab 763d 53ef 2ebd a7ee 2dbe
00000140: 774b 563c 2d4a c2bd e3cd 273e 3438 22bc
00000150: 27bf 4cbd f1ef d2bd 6ffe 2b3d c648 19be
00000160: 8584 193e 3a9d 0bbe ee0d 81bd 0899 af3d
00000170: 007e edbd 3937 2b3e 0f2a 9abc 239d b4bd
00000180: 1294 be3b c1fa c03d 24ba b63d e646 f8bd
00000190: 9cab da3d e01b 9cbd c602 b5bd a2d9 fdbd
000001a0: 271f a1bd 73a5 b33d 8fc8 ba3d e676 13be
000001b0: 98c3 653d f9c6 2e3e e20f 103e 4e16 6ebd
000001c0: be71 c03d 2cdf e3bd 1cce 9abd 5de2 f23d
000001d0: 5099 c1bd 6485 f43d ee9a 73bd e3a4 df3c
000001e0: f501 a8bd 3241 d1bd 4d31 d03d 7706 0d3e
000001f0: 6d33 0e3e 01ca 1abe fe6f a3bd c247 033e
00000200: 6654 fdbd 8cb6 febd 04d8 cfbc e458 263e
00000210: 92a4 26be faed e13c 8068 e7bd 4680 143e
00000220: 70ec 31be 6a1a d73d 1b4d 013e dee7 efbd
00000230: c6f8 f7bd 025b f43d 9e07 a5bd 2360 3fbd
00000240: be6c 673d d483 81bd 57d4 163e 336a 173e
00000250: 6eb6 4f38 e4af 343e da40 31be 0438 21be
00000260: ea17 273d 1505 243e 2ef6 3abd 2129 73bd
00000270: aa6f 83bd 4700 3f3d 4267 07bd c035 0b3e
00000280: 6d68 b6bd 2bc8 e5bd e31d 65bc 4dca 233e
00000290: a70d 64bc 99dd 1c3e 27ce 303e 683b 09bd
000002a0: ab45 68bb 99e6 2e3e f6dd 173e 3c41 843d
000002b0: d9a5 01be 6e3d 08be fafb dcbd 4c03 c9bc
000002c0: ead4 c2bd b2e7 27be 05ab 213e 8838 02be
000002d0: 9f72 9f3c 66ef abbd cc7f a2ba 7c78 f23c
000002e0: 884a f2bd 7f82 d6bd 57ac 12be ba97 ea3c
000002f0: acc0 afbd cd2b 033e 64e5 a4bb 07a3 33be
00000300: 4a87 113e db3e 6ebd 378d 1cbe 7252 b73d
00000310: d0c7 f0bd abd2 a5bd 0c08 33be 5a63 52bc
00000320: 582a 313e 02a9 313e 5951 b33d 0fc6 3dbd
00000330: aa87 1dbe ff3a 023e 8f05 b73d 29de 29be
00000340: cb09 9fbc 1cf7 46bc 95ab 5b3d b2dc ce3d
00000350: 4662 303e 008b c43d fa18 d13d 80c7 ffbc
00000360: 2ada 5f3d 5e95 eb3d 8d8d 7d3d 4791 72bd
00000370: aa1f 24bd f834 993d e70c be3d 4671 03be
00000380: 2da6 20be 29a5 c93d 7761 e6bd 316a 163e
00000390: 39a7 29be a54e ccbd 5793 4fbd d402 e13d
000003a0: e66a c13d 7c75 c7bd c8d3 99bd aee2 1c3e
000003b0: 585a 9c3d c0eb c0bd 2674 293e 1a14 dcbc
000003c0: 34ae bfbb 62b0 05be 338c acbd dcc8 ec3d
000003d0: 1a3d d8bd ab72 2b3d 915c ccbd 0c93 613d
000003e0: 1f06 24bb 589c de3d 3b16 aabd 6fdd 23be
000003f0: c79e d5bd adb6 703c d4dd 53bc f9da 613c
0.1661505 -0.03970374 -0.027147839 0.034698676 -0.0052101724 0.06527742 0.022390366 -0.0930517
0.034571983 0.16941069 0.13187595 -0.048012614 0.13844873 -0.06319127 -0.045394704 -0.099137686
-0.13467641 0.010366523 0.02083993 0.085042454 -0.13262245 0.13176546 0.033400048 0.09030263
-0.14107332 -0.054012492 -0.070215195 0.088344306 -0.06593301 0.1014564 0.06926112 -0.0429351
0.14098923 -0.16686411 -0.09029096 -0.030335004 0.016610557 -0.07483683 0.05364282 -0.007634459
0.023855917 -0.05207483 -0.011495216 0.101286545 0.096449964 -0.08646346 0.0057840436 -0.091835976
-0.07498205 0.056088835 -0.036836892 0.1308753 0.11504667 -0.114386946 -0.14992626 0.05355362
0.11757357 0.08643153 0.15067038 0.0906313 0.059538428 0.117913604 0.1252264 -0.062757395
0.09099079 -0.09068841 -0.08443013 0.14293179 0.043147646 -0.11284625 -0.13258587 0.06830036
0.16678871 -0.031779967 -0.12301356 0.0252263 -0.1710279 0.060222197 -0.042708706 -0.1698557
0.013079516 -0.09486804 0.16387133 -0.009901095 -0.049986985 -0.102996714 0.041990694 -0.14969167
0.14991958 -0.13634196 -0.06301485 0.0857411 -0.11596298 0.16720285 -0.018818883 -0.08819034
0.005815991 0.094228275 0.08922222 -0.12122898 0.10677263 -0.07622504 -0.088384196 -0.12395026
-0.0786727 0.08771791 0.09120285 -0.14400825 0.056094736 0.1706809 0.14068559 -0.05812674
0.093966946 -0.11126551 -0.075588435 0.118595816 -0.0945307 0.11939505 -0.059473924 0.027300304
-0.08203498 -0.10217513 0.101656534 0.13771997 0.13886805 -0.15116121 -0.07980345 0.12820342
-0.12369613 -0.12437162 -0.025371559 0.16244847 -0.16273716 0.027579296 -0.11299229 0.14502057
-0.1737535 0.10503085 0.1262707 -0.11714147 -0.12107997 0.11931421 -0.080580935 -0.046722542
0.05650019 -0.06323972 0.14729439 0.14786606 4.9522547e-05 0.17645222 -0.17309895 -0.15744025
0.04079429 0.16017564 -0.04564493 -0.059365395 -0.064177826 0.046631124 -0.03305746 0.13594723
-0.089066364 -0.1121982 -0.013984176 0.1599514 -0.013919271 0.15318908 0.17266141 -0.03350392
-0.0035441916 0.17080154 0.14830765 0.06457755 -0.12660922 -0.13304684 -0.10790248 -0.024537705
-0.095132664 -0.16396978 0.15787895 -0.12716877 0.019463835 -0.08395271 -0.0012397706 0.029598467
-0.11830622 -0.10474109 -0.14323555 0.028636802 -0.08581671 0.12809677 -0.0050322283 -0.17542659
0.14211765 -0.058165412 -0.15288244 0.08951272 -0.11756861 -0.08096822 -0.17483538 -0.01284107
0.17301309 0.17349628 0.0875575 -0.04633146 -0.15383783 0.12717818 0.08936607 -0.16588654
-0.01941385 -0.012143876 0.05363043 0.10100688 0.17224988 0.09596825 0.10209842 -0.031223059
0.054651417 0.11503099 0.06190257 -0.05922058 -0.04006926 0.07480806 0.09279805 -0.12836179
-0.15688391 0.09845955 -0.11249059 0.14688946 -0.16567697 -0.09975938 -0.050677624 0.109868675
0.094442174 -0.09739205 -0.07511097 0.15320846 0.07634419 -0.09419966 0.16548213 -0.026865054
-0.005849624 -0.13055566 -0.084251784 0.115617484 -0.10558529 0.041857403 -0.09978593 0.055071875
-0.0025028063 0.10869664 -0.083050214 -0.16002439 -0.10430675 0.014691991 -0.012931306 0.013785117

classifier.2.bias f4 [16]
00000000: e991 2f3e 6199 27be 6a74 5ebd fc86 99bd
00000010: 3e14 2c3e f0e7 b4bd 05a8 88bc 6e55 2abe
00000020: 28fc a53d e28d 05be 5ef0 903b 4104 4c3d
00000030: 2a36 cdbd c94e 443d 29cf 3d3d 7c87 c23d
0.17145504 -0.16367103 -0.05431024 -0.07496449 0.16804597 -0.08833301 -0.01668168 -0.16634151
0.081047356 -0.13042405 0.0044231853 0.049808744 -0.100200966 0.047926698 0.04634014 0.09498498

classifier.4.weight f4 [2, 16]
00000000: 28c7 7fbe 0053 dcba 623c 0a3e 5e71 29be
00000010: 80b7 2b3b 98c6 223d b6dc 303e 58aa 20bd
00000020: 102f 1b3d 4069 39bc 783f 3c3e a08f 40be
00000030: 284f 453d 50f0 c63c b854 5abe 00d9 6f3b
00000040: 782a 0f3e d828 763e b029 6f3e 00ab 0d3c
00000050: 206e f9bc 52cb 243e 5813 f23d c8b8 723d
00000060: 5cdc 273e 1235 393e daaa 41be b29c 433e
00000070: e8d6 3c3e 9026 31bd cc4c 6e3e decd 02be
-0.24978316 -0.0016809404 0.13499597 -0.16547152 0.0026201904 0.039740175 0.17271695 -0.039224952
0.03788668 -0.011316597 0.18383586 -0.18804789 0.048171192 0.024284512 -0.2132138 0.0036597848
0.13981044 0.24039018 0.23355746 0.008646727 -0.03044802 0.16093186 0.11820096 0.059258252
0.16392654 0.18086651 -0.18912831 0.19102743 0.18441355 -0.043249667 0.23271483 -0.12773845

classifier.4.bias f4 [2]
00000000: c4df f3bd 78a8 dcbd
-0.11907914 -0.1077432
