rewards_results/init-ckpts/initmodel-0.pt (torch, 5488 bytes, 6 tensors)

classifier.0.weight f4 [32, 2]
0	0xbedf70b5	-0.43640676
1	0x3f23b10c	0.6394203
2	0x3f1bca6c	0.60855746
3	0xbec90cc7	-0.3926756
4	0x3e5829a0	0.21109629
5	0xbf0a8f99	-0.5412536
6	0xbe052763	-0.13003306
7	0x3edb2ffc	0.42810047
8	0x3e56835f	0.20948552
9	0x3e75e63f	0.24013613
10	0x3f316048	0.6928754
11	0xbf2aa2b3	-0.6665451
12	0x3e0be71d	0.13662381
13	0x3e66b8df	0.2253146
14	0x3f29fefc	0.664047
15	0x3ebb8e05	0.3663179
16	0x3f0a9f72	0.54149544
17	0xbe041693	-0.12899236
18	0x3f0f6a82	0.56021893
19	0xbea33934	-0.3187958
20	0xbee232f1	-0.4417949
21	0x3d7a5d4e	0.06112414
22	0x3e17e44a	0.14833179
23	0x3e0c9d0a	0.1373178
24	0xbd26d0eb	-0.040726583
25	0x3f0cf47e	0.55060565
26	0xbe3339ba	-0.1750249
27	0x3e8f8279	0.2802923
28	0x3e125498	0.14290082
29	0x3ecc5e33	0.39915618
30	0x3ed79155	0.42103067
31	0xbe771582	-0.24129298
32	0x3f022b1c	0.5084703
33	0xb92d107b	-0.00016504705
34	0x3e8dfd55	0.2773234
35	0xbdf21d39	-0.1182198
36	0x3dc58a6c	0.096455425
37	0xbd5e0c3a	-0.05421088
38	0x3f2723b9	0.65288883
39	0x3e1367a3	0.14395003
40	0xbe94001e	-0.2890634
41	0x3e5cd5ce	0.21565935
42	0xbf0768d2	-0.5289432
43	0xbe5774b7	-0.21040617
44	0x3e14c777	0.14529215
45	0xbe6972d4	-0.2279771
46	0xbe43b246	-0.19110975
47	0xbeffeed5	-0.49986902
48	0xbf271b9e	-0.65276515
49	0x3eae577c	0.3405112
50	0x3f0270e5	0.50953513
51	0xbeb34bf0	-0.35018873
52	0x3f122661	0.5708981
53	0x3e1ced69	0.1532494
54	0xbead3d29	-0.33835724
55	0x3f2f7de0	0.68551445
56	0xbf1557bd	-0.58337003
57	0x3f10f249	0.566197
58	0xbd8b67b9	-0.06806893
59	0xbf31e8c3	-0.6949579
60	0xbee834e6	-0.45352858
61	0x3de4ae57	0.11166065
62	0x3eec4724	0.46148026
63	0x3f27dab8	0.65568113

classifier.0.bias f4 [32]
0	0xbe8a86d2	-0.27055985
1	0x3f12202e	0.5708035
2	0xbe263fbd	-0.16235252
3	0x3e70e0dc	0.23523277
4	0x3f2a2717	0.66465896
5	0x3f2487bd	0.6426962
6	0xbe076386	-0.13221559
7	0x3b298763	0.002586805
8	0x3f22cf52	0.63597596
9	0x3e38fa1a	0.18064156
10	0x3f238534	0.63875127
11	0xbf1cb096	-0.6120695
12	0x3ebe2bf3	0.37142906
13	0xbf0be87a	-0.54651606
14	0xbe688911	-0.22708537
15	0x3d9faf42	0.077971
16	0xbef0a2f7	-0.46999332
17	0xbf224804	-0.6339114
18	0x3dd4eedc	0.10397121
19	0xbe90b6a3	-0.2826434
20	0x3e1db4bf	0.1540098
21	0xbe40c80e	-0.18826315
22	0x3e8504b4	0.2598015
23	0xbc8aabf1	-0.016927691
24	0xbed4083c	-0.41412532
25	0xbefe392b	-0.4965299
26	0x3e2199ca	0.15781322
27	0xbca9407f	-0.020660637
28	0xbde5ca61	-0.11220241
29	0xbf1576d4	-0.5838444
30	0xbeb2de1d	-0.34935084
31	0x3e29666b	0.16542976

classifier.2.weight f4 [16, 32]
0	0xbd9a29b5	-0.07527486
1	0x3d2459ce	0.040124707
2	0x3de80b66	0.11330299
3	0xbd456acd	-0.048197556
4	0xbc688f08	-0.014194258
5	0xbc3f44c2	-0.011674108
6	0xbdda9e76	-0.10674755
7	0x3e132ff5	0.14373763
8	0x3df71475	0.12064449
9	0x3da8d76d	0.08244214
10	0x3d9e614b	0.07733401
11	0x3da25ce5	0.079278745
12	0x3e2e58e1	0.17026092
13	0x3bf14fda	0.0073642554
14	0xbd865563	-0.06559255
15	0xbd593b51	-0.053035084
16	0x3ca18c33	0.019720173
17	0x3dd6c5fe	0.10486983
18	0xbdbdc1d4	-0.092654854
19	0xbdbf41a1	-0.093386896
20	0xbcb8b62d	-0.022547806
21	0xbe0c6742	-0.13711265
22	0x3e25eafa	0.16202918
23	0xbd77deec	-0.06051533
24	0x3e1dd037	0.15411459
25	0xbd4ab472	-0.049488492
26	0x3df6f788	0.120589316
27	0xbda41bd2	-0.08013119
28	0xbdf26e63	-0.11837461
29	0x3bedeb87	0.007260743
30	0x3c564684	0.013078336
31	0x3dafad07	0.08577924
32	0x3df30c89	0.11867625
33	0x3b693fa2	0.0035590907
34	0xbd92a0c0	-0.07159567
35	0xbcc5b5e8	-0.024134591
36	0x3dc002d0	0.093755364
37	0x3da81b7e	0.08208369
38	0xbd93777e	-0.07200526
39	0x3e1dc726	0.15408
40	0xbd650496	-0.055912577
41	0xbc6aa0d5	-0.014320572
42	0xbe2e0ad6	-0.16996321
43	0xbd41f78e	-0.047355227
44	0xbd90f5b1	-0.07078112
45	0xbd520357	-0.051272716
46	0xbb49347c	-0.003070145
47	0xbdfa6028	-0.122253716
48	0xbd8339c2	-0.06407501
49	0x3deb1866	0.11479263
50	0xbd8624ac	-0.06549963
51	0x3cfd65e3	0.030932372
52	0x3de66ff1	0.1125182
53	0x3d77f576	0.060536824
54	0xbde88097	-0.113526516
55	0x3e133e1f	0.14379166
56	0xbe0e72bf	-0.1391096
57	0xbe06cf84	-0.13165098
58	0x3e2f82e5	0.17139776
59	0x3e0bfedf	0.13671444
60	0xbe1102b9	-0.14161195
61	0x3de76e7a	0.113003686
62	0xbd889e19	-0.0667078
63	0x3e1ef99a	0.15524903
64	0xbd8b92a8	-0.06815082
65	0xbcd43117	-0.025902314
66	0xbd83b0dd	-0.06430218
67	0xbdaf8509	-0.08570296
68	0xbdb9cbea	-0.09072097
69	0x3d3d152c	0.04616277
70	0xbc7ca084	-0.015419129
71	0x3d9ddf3d	0.07708595
72	0xbdeda4f8	-0.11603731
73	0x3d117f4a	0.035521783
74	0xbd93b57c	-0.0721235
75	0x3dc375ef	0.095439784
76	0xbda93a33	-0.08263054
77	0x3d13b7ac	0.036063835
78	0xbd191452	-0.037372895
79	0xbb51e292	-0.0032025916
80	0xbe330e64	-0.17485958
81	0x3e284896	0.1643394
82	0x3df60c71	0.12014092
83	0x3e0a2a83	0.1349278
84	0x3bcf9bbc	0.0063357037
85	0xbe1bb95c	-0.15207428
86	0x3c60726f	0.013699158
87	0xbdf05888	-0.11735636
88	0xbdb8c1e0	-0.09021354
89	0xbe10941b	-0.14118998
90	0x3e0372ed	0.1283681
91	0x3e1535aa	0.14571252
92	0x3e02033a	0.12696543
93	0xbd8edfd6	-0.06976287
94	0xbba17593	-0.004927346
95	0xbdde1505	-0.10843853
96	0xbcf637e5	-0.03005595
97	0x3ddd9796	0.10819928
98	0x3c9d6cab	0.019216856
99	0x3e23dd79	0.16002454
100	0x3da6ffb0	0.08154237
101	0xbc125164	-0.008930538
102	0x3d88b17d	0.06674478
103	0x3dc1089c	0.0942547
104	0xbe1403d0	-0.1445458
105	0x3e146e52	0.14495209
106	0xbd2d619a	-0.04232941
107	0x3dd279ef	0.10277163
108	0x3de68a86	0.1125689
109	0xbd7101f6	-0.05883976
110	0x3e31fdae	0.17381927
111	0x3d8ef368	0.0698002
112	0xbdde3211	-0.10849393
113	0x3db6f595	0.0893356
114	0xbe01d990	-0.1268065
115	0x3d459e5a	0.04824672
116	0x3d7d8de2	0.061902888
117	0x3de76683	0.112988494
118	0xbd87c11b	-0.06628629
119	0x3caa65ba	0.02080046
120	0xbd605f5e	-0.05477845
121	0x3b0c58cd	0.0021415234
122	0x3dd47a11	0.10374845
123	0xbb994e8c	-0.004678553
124	0xbe1fefa6	-0.15618762
125	0x3dcf8198	0.1013214
126	0x3d277b66	0.040889166
127	0xbd9f82cc	-0.077886194
128	0xbe330df3	-0.1748579
129	0xbb811b0e	-0.0039399927
130	0x3db5d296	0.08878057
131	0x3c87af62	0.016563121
132	0xbcd6a709	-0.026202695
133	0xbde52e46	-0.111904666
134	0x3dac4029	0.08410675
135	0x3e28f642	0.1650019
136	0x3da4a9f3	0.08040228
137	0xbd088ed4	-0.033339337
138	0xbe2313a8	-0.15925467
139	0xbe306e51	-0.17229582
140	0x3e12500c	0.14288348
141	0xbe349bfe	-0.17637631
142	0x3d9476ca	0.0724922
143	0xbda6b856	-0.08140628
144	0xbdb00417	-0.0859453
145	0xbdb75058	-0.08950871
146	0xbd58befa	-0.052916504
147	0xbe153e73	-0.14574604
148	0x3d961fce	0.07330285
149	0xbe004511	-0.12526347
150	0x3d83f9c5	0.06444124
151	0xbdf3149f	-0.118691675
152	0x3da0c0fc	0.07849309
153	0x3c3b661a	0.011437917
154	0x3e029e33	0.1275566
155	0xbe25e4b7	-0.16200529
156	0x3dea9f35	0.114561476
157	0xbd6372cc	-0.0555294
158	0x3e14714e	0.14496347
159	0x3debbea0	0.11510968
160	0xbe34b105	-0.17645653
161	0x3dc94ea6	0.09829454
162	0xbdcabc77	-0.09899228
163	0x3c598914	0.013277311
164	0x3e333f40	0.17504597
165	0xbe1ebb0e	-0.15501043
166	0xbde888b6	-0.113542005
167	0xbcde800f	-0.027160672
168	0x3cee0c7f	0.029058693
169	0x3e2f10ed	0.170963
170	0x3d5f8725	0.054572243
171	0x3e189ab0	0.14902759
172	0x3d34aa10	0.044107497
173	0x3ae4d936	0.0017459753
174	0xbdf22360	-0.118231535
175	0x3d80a5bb	0.062816106
176	0x3db90d07	0.09035688
177	0xbdb79b8b	-0.08965214
178	0xbdd127ce	-0.1021267
179	0xbd631b9f	-0.055446263
180	0xbcf1df43	-0.029525405
181	0x3ca4466c	0.020053111
182	0x3dcce134	0.100038916
183	0xbe154106	-0.14575586
184	0x3df473c7	0.11936145
185	0xbd37f5d7	-0.044912186
186	0x3a2b491b	0.0006534026
187	0xbc33f719	-0.010984206
188	0xbd85d484	-0.06534675
189	0xbcf2c639	-0.029635536
190	0x3e17d258	0.14826334
191	0xbe1c0a7a	-0.15238371
192	0x3d9aadb4	0.075526625
193	0xbd9039d0	-0.07042277
194	0x3e2d0769	0.16897358
195	0xbd801a0b	-0.06254967
196	0xbe227338	-0.15864265
197	0xbe1af3dc	-0.15132087
198	0xbdfff952	-0.12498726
199	0xbdfbdbc9	-0.1229778
200	0x3d14d667	0.036337283
201	0x3d95f0ed	0.073213436
202	0xbe0ed852	-0.13949707
203	0xbd172038	-0.03689596
204	0xbe0d499f	-0.13797615
205	0xbe2d00bb	-0.1689481
206	0x3d932cbd	0.071862675
207	0x3e33d376	0.17561135
208	0xbe0cd8ec	-0.13754624
209	0x3dbd92fe	0.09256552
210	0xbe0b0a84	-0.1357823
211	0x3ddd0c65	0.1079338
212	0xbd9a0d6f	-0.075220935
213	0xbe307a54	-0.17234164
214	0x3dc4dedc	0.096128196
215	0xbe2e65ed	-0.17031069
216	0x3de4978f	0.1116172
217	0xbd36d5fb	-0.04463766
218	0xbdd74f81	-0.10513211
219	0x3d7c2400	0.06155777
220	0x3d46393b	0.048394423
221	0x3dd3bfe3	0.10339334
222	0x3e064bfd	0.13114925
223	0xbc457f1b	-0.01205423
224	0x3c7b48af	0.015337153
225	0xbdce43e2	-0.10071541
226	0x3e2c23d2	0.1681054
227	0xbdc68df9	-0.09695048
228	0xbdea863d	-0.11451385
229	0xbe2cf0cd	-0.16888733
230	0x3c2c53dc	0.0105180405
231	0xbbc5c012	-0.0060348595
232	0xbc7c917d	-0.0154155465
233	0xbdb84378	-0.08997244
234	0x3e233013	0.15936308
235	0x3e10d1c2	0.14142516
236	0x3dc27a78	0.09496015
237	0xbd23a4b2	-0.039951988
238	0x3d802bcf	0.06258356
239	0xbe270800	-0.16311646
240	0x3e1effbc	0.15527242
241	0x3e1b00ce	0.15137026
242	0xbdb766af	-0.08955132
243	0xbdf8d951	-0.12150825
244	0x3d8c5476	0.06852047
245	0x3d2a0a66	0.041513823
246	0xbc40ba05	-0.0117631005
247	0x3d966323	0.073431276
248	0xbd91b8c4	-0.07115319
249	0xbd0d381d	-0.034477342
250	0xbdc1cff5	-0.09463493
251	0xbe2f5608	-0.17122662
252	0x3de28549	0.110605784
253	0xbdf3ec47	-0.11910301
254	0x3e026278	0.12732875
255	0xbe20a47c	-0.15687746

classifier.2.bias f4 [16]
0	0xbdcac206	-0.09900288
1	0xbe27666c	-0.16347665
2	0xbd841b2c	-0.06450495
3	0x3e08a84c	0.1334545
4	0x3d99db81	0.0751257
5	0xbde94c1b	-0.11391469
6	0x3db774e2	0.089578405
7	0xbdcb478b	-0.09925755
8	0xbdfd9ed2	-0.12383808
9	0xbd73d445	-0.059528608
10	0x3d664209	0.05621532
11	0xbdf3a34b	-0.1189638
12	0x3e0baa0f	0.13639091
13	0x3c7230b6	0.014782121
14	0x3d5b220d	0.05349927
15	0xbd1e9b5a	-0.038722374

classifier.4.weight f4 [2, 16]
0	0xbe01fb32	-0.1269348
1	0x3e7224ae	0.23646805
2	0x3be0cc00	0.006860256
3	0xbe6ddbf6	-0.2322844
4	0xbdddd8fc	-0.10832402
5	0x3e721d80	0.23644066
6	0xbcebd470	-0.028787822
7	0xbe5b7316	-0.2143062
8	0xbd6cdaf8	-0.057826012
9	0xbdfec6a0	-0.124402285
10	0xbe3f4466	-0.18678436
11	0x3e1010e0	0.14068937
12	0x3e350a80	0.17679787
13	0xbda2506c	-0.079254955
14	0x3e51c8ce	0.20486757
15	0xbe47a62e	-0.19496986
16	0xbe53eb56	-0.20695242
17	0xbe7dd11c	-0.247868
18	0xbe066960	-0.13126135
19	0xbba26e00	-0.0049569607
20	0x3e1168d6	0.14200148
21	0xbd133bf8	-0.035945863
22	0x3e3e3ef4	0.18578702
23	0x3d00c2f0	0.031435907
24	0xbe71fc6e	-0.2363145
25	0xbe06ec04	-0.1317597
26	0x3e39661a	0.18105355
27	0x3e4bcad4	0.19901592
28	0xbd0ac470	-0.033878744
29	0x3d90c1c4	0.07068208
30	0x3d23a6f0	0.039954126
31	0x3d847e78	0.064694345

classifier.4.bias f4 [2]
0	0xbcc934d0	-0.024561316
1	0x3e0fb6b8	0.14034545
