rewards_results/init-ckpts/initmodel-3.pt (torch, 5488 bytes, 6 tensors)

classifier.0.weight f4 [32, 2]
000000 a8 9c b7 3d 03 cf fd be 1d df 20 3f bb 78 32 be
       0.08965427 -0.49572 0.62840444 -0.17428868
000010 20 28 6c 3d c4 fe 03 3f 36 9b c1 be 5e 83 d9 be
       0.057655454 0.51560616 -0.3781373 -0.42483038
000020 32 7a db 3e f5 62 66 3e 4f fd 59 be 39 0f 01 bf
       0.42866665 0.22498687 -0.21288036 -0.5041385
000030 72 18 16 3d 70 4b 32 bf c2 b9 d7 be 5c d8 a7 bd
       0.036644407 -0.6964636 -0.4213391 -0.08195564
000040 e9 bc d6 bd f2 93 22 3f e4 0d b0 3e 5a 30 00 3f
       -0.104852505 0.63506997 0.34385598 0.5007378
000050 3f bd b8 3e f8 69 bf 3d 25 e1 a9 3e 53 f5 13 3d
       0.36081883 0.09346384 0.33179584 0.03612263
000060 dc 5a a7 3e 4f 8b 16 3e da 43 07 bf c5 b4 1e 3f
       0.32686508 0.1470158 -0.5283791 0.6199458
000070 24 15 60 3e b2 72 4c be 2c a7 d1 bc c4 f8 10 3d
       0.21883065 -0.19965628 -0.02559241 0.03539349
000080 91 f0 ad 3e b5 dd ec 3e 38 49 6e bd 5e 8b 17 3f
       0.339726 0.462629 -0.058175296 0.5919703
000090 49 07 84 be 65 47 20 3e 53 dd b1 3e 82 ed ee 3e
       -0.25786808 0.15652235 0.3473917 0.4666558
0000a0 81 c1 24 3a 83 d7 1c 3f d1 82 29 3f 75 33 84 be
       0.0006284938 0.61266345 0.66215235 -0.2582051
0000b0 d5 c7 59 3d 08 b7 c1 3e 30 3c ab 3e ae 1d 02 3c
       0.05316909 0.37834954 0.33444357 0.0079416465
0000c0 4f 07 f5 3d 54 a6 5a be a1 9f 5f bd e6 3b 17 3f
       0.11964285 -0.21352512 -0.054595593 0.5907577
0000d0 4c 0c ee 3e 8d 3d ca 3e 5a 4b 4e 3e a9 ad 11 3f
       0.46493757 0.39500085 0.20145932 0.5690561
0000e0 6a 28 c4 be 4c d3 84 be c7 ee 10 3d 01 7a dc 3e
       -0.38312083 -0.25942457 0.035383966 0.43061832
0000f0 e5 12 8f be 36 6f 17 bf 25 b5 f1 3c a4 33 20 3e
       -0.27944103 -0.5915407 0.029505322 0.156447

classifier.0.bias f4 [32]
000000 46 e7 da bc a9 b0 0b bf e7 4e 22 bf 83 3a 98 be
       -0.026721608 -0.54566437 -0.63401645 -0.2973214
000010 04 9d e4 3e 88 2e ba bc 60 e6 95 bd 74 28 9d be
       0.44651043 -0.022727266 -0.07319331 -0.30694926
000020 72 2a 16 3f aa ac 2d bf 87 b6 b8 be b1 6a 55 bd
       0.58658516 -0.6784159 -0.36076757 -0.052103702
000030 44 d8 01 bf d5 6a 19 3d 2b c7 5e be 9c 1e c5 be
       -0.5072062 0.0374554 -0.21755664 -0.38499916
000040 2b c2 02 be 8d 2a 95 be f0 04 af 3e 77 d5 55 3d
       -0.12769382 -0.29134026 0.34183455 0.05220553
000050 12 bc 63 3d 23 77 1f 3f df e3 cd bd df 0e 63 3e
       0.05559928 0.62291163 -0.100532286 0.22173642
000060 04 57 1a 3f 14 3a 2a bf 50 5c 80 3c 47 1a 97 bd
       0.60289025 -0.6649487 0.015669018 -0.07378059
000070 c7 9e ee bd 6b 30 d2 be 26 d3 76 be be 53 07 3f
       -0.11651378 -0.41052565 -0.24103984 0.52862155

classifier.2.weight f4 [16, 32]
000000 99 c5 4d bd f6 b7 ef 3d 99 98 a7 bd c2 7f 00 bc
       -0.050237272 0.1170501 -0.081834026 -0.00784296
000010 90 c8 a0 3d e5 6b 94 3c 85 cb 66 3d 33 e2 84 3c
       0.07850754 0.018117854 0.056346435 0.016221141
000020 3e a1 b9 bc 9e e3 64 3d b3 5a 16 3e 7a 10 1e be
       -0.022659894 0.055881135 0.14683037 -0.15435973
000030 74 c4 04 be 29 ed b0 bd 28 57 0a be ff b2 c8 bc
       -0.12965566 -0.08638985 -0.1350981 -0.024499414
000040 ce f1 a7 bd 03 18 1a be 1f 7e 7a 3d 12 53 0e 3d
       -0.082004175 -0.15048222 0.061155435 0.03474719
000050 56 1b d4 bd 2d 8b d9 3d f5 7a 0a 3e 8f 61 07 be
       -0.103567764 0.10622249 0.13523467 -0.1322081
000060 4b 6b 48 3d cf 7b b9 3d d0 31 13 3e 10 06 ea bc
       0.048930448 0.09056818 0.1437447 -0.028567344
000070 c7 ba 2c be f7 ad 94 bb de 98 dd bd 8b 36 a7 3d
       -0.16868125 -0.00453734 -0.10820173 0.081647
000080 e5 05 60 3b 97 eb a2 3c 5e 0d 31 3d f1 e7 ce 3d
       0.00341832 0.019887729 0.04322564 0.10102833
000090 8f b8 c5 3c 78 41 0e 3e 50 59 83 bc fb f0 a2 bc
       0.024135856 0.13892162 -0.016033798 -0.019890299
0000a0 69 71 02 3e 37 ea 00 be 9b b9 d0 3d 08 90 18 3e
       0.12738575 -0.12589346 0.101916514 0.14898694
0000b0 8a 3a 34 bc b8 33 17 be ff cc 22 3e c9 c1 60 bd
       -0.011000285 -0.14765823 0.15898512 -0.054872308
0000c0 a1 06 a8 3c 55 c2 e3 3d b0 e9 bb bd f4 bc e3 bd
       0.020510973 0.1112105 -0.09175432 -0.11120024
0000d0 07 5d ff bd 16 d0 68 bc 30 4d d6 3d 29 e3 2c 3e
       -0.124689154 -0.014209768 0.10463941 0.1688353
0000e0 d3 f3 90 3d 55 09 04 be 98 3c bd ba 10 94 8b 3d
       0.07077756 -0.12894185 -0.0014437614 0.0681535
0000f0 53 19 39 3d b4 3c ce 3c 21 8d 94 3d e4 de 27 3e
       0.045190167 0.02517543 0.07253481 0.1639362
000100 3b c7 34 bd e9 85 8f 3d d9 81 f7 bc 06 d6 31 be
       -0.044135313 0.07007963 -0.030213283 -0.173668
000110 5a 42 64 bd 4e 2e 34 3e 03 11 ba bc fb ff 14 3e
       -0.05572734 0.17595789 -0.02271319 0.14550774
000120 31 95 ef bd 2f 42 97 3d 85 4c 03 be e0 f9 ae bd
       -0.11698378 0.073856704 -0.12822159 -0.085437536
000130 8d d6 b3 3d b0 34 ad 3d eb 4d aa bd d2 11 98 bd
       0.08781157 0.08457315 -0.08315643 -0.07425274
000140 5f 11 9b 3c cf 8f 52 bb ad 1f d0 bd ce c7 16 be
       0.018929182 -0.0032129174 -0.10162292 -0.14724657
000150 e6 cd 07 be ef 05 0f be 18 a9 81 3d 6a 95 ae bd
       -0.13262138 -0.13967107 0.0633108 -0.08524592
000160 76 f4 13 3e 09 53 f1 3c 52 7b 94 bc 90 70 4a 3d
       0.14448723 0.02945854 -0.01812521 0.049423754
000170 9f 46 31 3e 85 20 2a 3e 98 93 a9 3d b9 e6 f3 bd
       0.17312096 0.16613968 0.082801044 -0.11909241
000180 c0 01 34 bd 2b 81 0d 3e 0e 96 6d 3d a8 ea 85 bc
       -0.04394698 0.13818805 0.05800443 -0.016347244
000190 5a b2 2b be cd 36 5f bd 73 c7 4a bd 11 ce 37 bd
       -0.16767254 -0.05449562 -0.049506616 -0.044874255
0001a0 d4 4b 61 3d 84 4c 75 bd 4b e4 1a be 1a 05 53 3d
       0.055003956 -0.059887424 -0.1512615 0.051518537
0001b0 fa 38 a6 3b 64 3d c9 3d 22 d4 df 3c 51 a3 f7 3d
       0.00507271 0.098261625 0.027322832 0.12091697
0001c0 ff 19 b1 bd 71 91 31 be 84 26 12 3e 48 30 8d bd
       -0.086475365 -0.17340638 0.14272505 -0.068939745
0001d0 c4 9a 68 3d 2f 6a c2 bd 10 1d 56 3d 87 a3 f0 3d
       0.05678822 -0.09492909 0.05227381 0.1174994
0001e0 c4 8f e7 bb b4 43 f2 bd 3f 08 c3 bd 9e 86 99 3d
       -0.0070666987 -0.118293196 -0.09523057 0.07496379
0001f0 41 89 e6 3d c2 55 1c 3d 5f 12 d5 3d e5 68 34 3e
       0.11256648 0.038167723 0.10403895 0.17618139
000200 5a 4a 10 bd bc ce 0a be 38 de a6 bd 79 f1 2b be
       -0.035227157 -0.13555425 -0.081478536 -0.16791333
000210 b0 da 09 3e f5 aa 58 3d a8 27 8c 3b fa be ac 3d
       0.13462329 0.052897412 0.0042771883 0.084348634
000220 0c e2 3a 3d 7f 40 64 bd d0 ba 88 3d 9a 94 31 bc
       0.04562573 -0.05572557 0.06676257 -0.010838652
000230 7b 57 22 3e b5 cb ae bd 80 b7 ef bd a1 65 11 3e
       0.15853684 -0.08534948 -0.11704922 0.14198925
000240 c1 f7 0d 3e dc 55 a6 3d 9e cc b5 3c be 5a ce 3d
       0.13864042 0.08121845 0.022192296 0.100759014
000250 fb 1c 93 bd 4c 1e 27 3e a0 f6 ce bb 75 ea ea bd
       -0.07183262 0.16320151 -0.006316021 -0.114705004
000260 8a 28 6d 3d fb 06 f0 3d ca 55 e6 3d 82 65 dc 3d
       0.05789999 0.117200814 0.11246832 0.107615486
000270 0d f4 b3 bc 12 90 04 be 3d cb 2b 3e 27 e3 12 be
       -0.021966958 -0.12945583 0.16776748 -0.14344464
000280 80 e0 47 3d 95 a3 fd bd 61 d0 52 bd b8 90 9d 3d
       0.048798084 -0.123847164 -0.051468257 0.076936185
000290 a6 de 1c 3d fb 8d 2b be 0c 6e 7c 3c cb 8a bb bd
       0.03829827 -0.1675338 0.015407097 -0.09157332
0002a0 0a b8 c1 3d 67 31 58 bd ca ff c1 3d 6c 6f d5 3d
       0.09458931 -0.05278149 0.09472616 0.10421643
0002b0 7e e1 fe bd f8 9c 11 3d db 86 07 bd 11 85 87 3d
       -0.12445353 0.035550088 -0.033087593 0.06617177
0002c0 e2 dc df bb 42 d1 ca bd c1 e7 9c 3d fd 43 0d be
       -0.006831751 -0.09903194 0.07661391 -0.13795467
0002d0 65 05 c3 bd eb ac 6a bd 0e d4 11 bc e2 82 a8 3d
       -0.09522513 -0.057293814 -0.008900655 0.08228089
0002e0 da ae 9c bd 57 4c 0c 3e 7a d7 66 3d be 00 43 3d
       -0.07650538 0.13700996 0.05635784 0.04760813
0002f0 51 9f 68 bd 0b aa 12 bd 1d 0e 20 be 76 2b be bd
       -0.05679256 -0.035806697 -0.15630384 -0.09285633
000300 8b ce 6b 3d af 49 a8 bd 59 93 6f 3d 02 f6 97 bc
       0.05757002 -0.08217179 0.05849013 -0.018549923
000310 a7 1d f2 bd a0 8c c4 bd f1 da 2c 3e 6d e2 af bd
       -0.11822062 -0.095971346 0.16880395 -0.08588109
000320 60 ff 2d be 3c 4d c9 bd a2 71 9c bd 32 2c 35 bc
       -0.16991949 -0.098291844 -0.07638861 -0.0110579
000330 5c 61 25 be 8b 3b a6 bd 8b b6 23 be 2a b7 4a 3d
       -0.16150421 -0.08116826 -0.15987603 0.049491085
000340 0a 8e 85 3d 30 85 b1 bd f0 ca fd bd fa ea 29 be
       0.065212324 -0.086679816 -0.12392223 -0.16593543
000350 ac 22 b7 3d 4d ab 04 be bb e7 1c bd 65 9c 18 be
       0.0894216 -0.12955971 -0.038306933 -0.1490341
000360 c9 65 e8 bd 85 28 6d bd f3 0e 11 be 53 6d fd bd
       -0.11347539 -0.05789997 -0.14165859 -0.123743676
000370 49 33 06 3e e1 1d d6 bd b4 7a c8 3d f1 9b fa 3d
       0.13105501 -0.10454918 0.09789029 0.12236775
000380 56 01 0f 3e df e5 8c bd c3 8a e5 bd d6 3c 14 be
       0.13965353 -0.06879782 -0.11208107 -0.14476332
000390 e5 0e d4 3d b4 b0 71 bd 9f bb c7 bd 56 13 8f bd
       0.103544034 -0.059006408 -0.09752583 -0.0698611
0003a0 6f 10 1f 3e 37 ff 0e 3e c8 fd ab bd 00 8e 1e be
       0.15533613 0.13964544 -0.08398014 -0.15483856
0003b0 15 25 7c 3d eb 75 15 be 83 15 aa 3c d8 80 05 3e
       0.0615588 -0.14595763 0.02076221 0.13037431
0003c0 a1 44 f9 bc c7 9d f1 3d c6 61 21 be fe 89 19 3e
       -0.030428233 0.11797672 -0.15759954 0.14994046
0003d0 4c bf ed bd 15 b2 b7 3d 3d a4 bb 3d a7 f1 22 be
       -0.116087526 0.08969513 0.09162185 -0.15912496
0003e0 11 be 8d 3d aa 2d 2a 3d 19 b9 03 be 2d 1a b0 3d
       0.06921018 0.041547455 -0.12863578 0.08598743
0003f0 1d 75 07 3d 39 05 a5 bd cc fc 29 3e ad 2c e8 bd
       0.033070672 -0.08057637 0.1660034 -0.11336646

classifier.2.bias f4 [16]
000000 8a 78 1c bd 00 74 04 3d f7 95 84 3d 9f b1 1f bd
       -0.038200893 0.03233719 0.06473916 -0.038987752
000010 a5 ba ae 3d ca a3 0b 3e a8 f9 c5 3c aa 58 f2 bc
       0.08531693 0.136367 0.024166897 -0.029583294
000020 92 c9 67 bb 48 fc 8f 3c 44 4c a7 bd 66 05 cb 3d
       -0.0035367948 0.017576352 -0.081688434 0.09913139
000030 dc dd 23 3e d6 2a a6 bc 1c e0 ca bc 32 5c cf 3d
       0.16002601 -0.020284098 -0.024765067 0.10125007

classifier.4.weight f4 [2, 16]
000000 30 a0 3a 3d 1c 47 01 be 5a 1f 26 be 10 73 e5 3c
       0.045562923 -0.12624782 -0.16222897 0.028008968
000010 b0 45 eb 3d 68 df 18 be 62 11 60 3e 58 a5 5c 3d
       0.11487901 -0.14928973 0.21881631 0.05386862
000020 16 78 72 be a4 fd 07 3e 58 f8 43 3e f6 47 34 be
       -0.23678622 0.1328035 0.19137704 -0.17605576
000030 4e bb 7f 3e 20 72 39 be 96 39 74 3e c4 fe bf 3d
       0.24973795 -0.18109941 0.23850092 0.093747646
000040 50 5a 99 bc 0c 55 68 3e 9a ed 3f be 38 f6 5d bd
       -0.018719822 0.22688693 -0.18742982 -0.05418989
000050 e0 a6 22 3e c8 27 b0 bd fa 91 0e be 68 a2 0e 3e
       0.1588397 -0.08601338 -0.13922873 0.1392914
000060 36 e8 07 3e 58 92 37 3d 7e 5f 79 3e 36 1e 51 3e
       0.13272175 0.0448173 0.24352834 0.20421681
000070 74 6b 60 be c8 a4 35 bd 40 b6 fe bc 4c 64 54 be
       -0.2191599 -0.0443466 -0.031092763 -0.20741385

classifier.4.bias f4 [2]
000000 40 f0 c7 3d 98 0f 4f 3e
       0.09762621 0.20220792
